MODEL SUMMARY
Model: "sequential_1"
_________________________________________________________________
Layer (type)                 Output Shape              Param #   
=================================================================
conv1d_1 (Conv1D)            (None, 26, 64)            256       
_________________________________________________________________
conv1d_2 (Conv1D)            (None, 26, 64)            12352     
_________________________________________________________________
dropout_1 (Dropout)          (None, 26, 64)            0         
_________________________________________________________________
max_pooling1d_1 (MaxPooling1 (None, 13, 64)            0         
_________________________________________________________________
flatten_1 (Flatten)          (None, 832)               0         
_________________________________________________________________
dense_1 (Dense)              (None, 100)               83300     
_________________________________________________________________
dense_2 (Dense)              (None, 4)                 404       
=================================================================
Total params: 96,312
Trainable params: 96,312
Non-trainable params: 0
_________________________________________________________________

Optimizer : <keras.optimizers.Adam object at 0x7f02ed040630>



Test accuracy = 0.999

CLASSIFICATION REPORT
              precision    recall  f1-score   support

           0       1.00      1.00      1.00       733
…
