MODEL SUMMARY
Model: "sequential_1"
_________________________________________________________________
Layer (type)                 Output Shape              Param #   
=================================================================
conv1d_1 (Conv1D)            (None, 3, 64)             256       
_________________________________________________________________
conv1d_2 (Conv1D)            (None, 3, 64)             12352     
_________________________________________________________________
max_pooling1d_1 (MaxPooling1 (None, 1, 64)             0         
_________________________________________________________________
flatten_1 (Flatten)          (None, 64)                0         
_________________________________________________________________
dense_1 (Dense)              (None, 100)               6500      
_________________________________________________________________
dense_2 (Dense)              (None, 100)               10100     
_________________________________________________________________
dense_3 (Dense)              (None, 2)                 202       
=================================================================
Total params: 29,410
Trainable params: 29,410
Non-trainable params: 0
_________________________________________________________________

Optimizer : SGD - lr = 0.05, momentum = 0.7



Test accuracy = 0.803

CLASSIFICATION REPORT
              precision    recall  f1-score   support

           0       0.82      0.78      0.80    147849
…
